src/py/notebooks/my_model/model_params.pt (torch_old, 255368 bytes, 31 tensors)

px_r f4 [87]
-1.5114789 1.6233463 -0.26069403 -0.3419101 4.1959352 2.845376 -0.33153206 3.9011717
1.0147486 -1.5106512 1.9717382 3.3946962 1.5396742 4.1225076 1.7424186 3.066141
2.8102572 -1.2184368 2.127681 0.8287759 0.5917981 2.6865227 2.1248038 5.9420643
1.1060116 1.7526249 2.2227483 2.5870764 0.38887087 2.301156 2.5589983 2.1774712
2.802711 2.8347425 -0.007926382 3.0863867 1.6827469 3.5740595 0.92801297 1.8723465
0.9391622 3.093126 1.3950292 1.9532769 1.5451572 2.2238295 -1.2398876 3.1319363
-0.84265476 0.8468723 1.0339555 1.2105163 -0.15323623 -0.388245 2.4061542 2.6879518
4.009601 0.72427106 1.5137368 2.196832 -1.5439229 -1.1750151 3.6823523 1.3967063
-0.56150484 3.4444494 0.86779 1.2842866 3.0862942 2.5370336 -1.0230488 0.3331738
0.09989984 1.5757453 3.6234171 2.7964869 2.9606261 0.8318372 -0.043928314 1.9454844
3.3795388 3.7021453 1.0171715 1.5653764 0.49667984 -0.08063522 0.657801
00000000: 2478 c1bf d0c9 cf3f b079 85be d70e afbe
00000010: 1a45 8640 a41a 3640 92be a9be ccac 7940
00000020: 48e3 813f 055d c1bf eb61 fc3f b442 5940
00000030: 0b14 c53f 95eb 8340 9307 df3f a73b 4440
00000040: 41db 3340 bdf5 9bbf ed2b 0840 a82a 543f
00000050: 1580 173f fdef 2b40 c9fc 0740 6425 be40
00000060: ca91 8d3f 0356 e03f 8241 0e40 a992 2540
00000070: 151a c73e 2446 1340 a1c6 2340 b05b 0b40
00000080: 9e5f 3340 6c6c 3540 a8dd 01bc 5c87 4540
00000090: 4064 d73f 64bd 6440 4292 6d3f 0da9 ef3f
000000a0: ef6c 703f c7f5 4540 5190 b23f fa04 fa3f
000000b0: b6c7 c53f 3953 0e40 a3b4 9ebf a571 4840
000000c0: 39b8 57bf a0cc 583f a758 843f 33f2 9a3f
000000d0: f5e9 1cbe 0cc8 c6be 6efe 1940 6707 2c40
000000e0: a74e 8040 d469 393f 21c2 c13f e598 0c40
000000f0: 449f c5bf e566 96bf a9ab 6b40 46c7 b23f
00000100: c8be 0fbf dc71 5c40 7c27 5e3f 8163 a43f
00000110: d885 4540 c25e 2240 43f3 82bf c295 aa3e
00000120: 4a98 cc3d 06b2 c93f 11e6 6740 a4f9 3240
00000130: e67a 3d40 48f3 543f 2dee 33bd a205 f93f
00000140: 5d4a 5840 f3ef 6c40 ad32 823f 415e c83f
00000150: d24c fe3e 1424 a5bd a565 283f

px_r f4 [128, 87]
-0.07640901 0.15086696 -0.07612359 -0.09867341 0.0022920365 0.0512423 0.009268624 0.24235848
-0.24104664 -0.08887035 -0.1739097 0.05989615 0.09119966 0.24970376 -0.39433905 -0.017892515
0.22457908 0.0031213954 0.14912343 -0.18224384 0.04548277 -0.2515873 0.21185927 0.26448432
-0.60346144 -0.0024546979 0.3483051 -0.04834611 -0.27489743 -0.07080124 -0.12537141 -0.085218236
-0.08572511 0.028820867 0.046200994 -0.053877108 -0.068601064 -0.029121561 -0.061042644 -0.4234129
-0.06523375 0.10334544 -0.32633972 -0.17215315 -0.05814807 -0.32379177 -0.18387924 0.06185546
-0.099690884 -0.07399216 -0.0046288786 0.052317247 -0.117618 0.07072288 0.16691576 -0.069758445
0.110945314 -0.020062817 0.005873714 -0.6412477 -0.18775855 -0.07582397 0.109318934 0.017565336
-0.0128263915 0.20010391 -0.017687708 0.13409857 0.06735547 0.0770408 0.39018568 -0.11969401
0.40062124 0.022004226 0.24486762 0.2693218 0.0862637 -0.11992962 -0.060855333 0.040685732
0.14063676 0.19155093 -0.022841252 -0.042052597 -0.09820602 0.061942633 -0.02274985 0.0429006
0.02957362 -0.090105064 -0.006261975 -0.24459663 -0.08241318 -0.11303609 0.17484514 0.9545353
-0.0124801155 -0.046160482 -0.09704879 -0.06848715 -0.19337526 -0.2518755 -0.1108822 -0.08990964
-0.033019774 -0.089714505 -0.05775182 -0.0001051706 0.024007494 0.020926714 0.36782756 -0.03552921
0.013199074 -0.08313792 -0.12367687 0.15377401 -0.18244042 0.24702695 0.18668348 -0.15440348
-0.08898582 -0.049930524 -0.060343575 -0.021546353 0.74285454 0.07992358 0.4762626 -0.014447673
-0.07592074 -0.0057055773 -0.07099173 0.18225576 -0.09357429 -0.01962797 -0.1641477 -0.054601837
0.03415057 0.02436466 -0.1328828 -0.038148858 -0.02061479 -0.12514654 -0.11668828 -0.11486231
-0.10752671 -0.032544676 0.27627876 -0.13949597 0.012172196 -0.072861575 0.07303577 -9.237548e-05
-0.14647314 -0.07846611 -0.06352734 -0.037489746 -0.067371905 -0.13740315 0.06156067 -0.024705607
-0.052320894 -0.14692366 -0.12843078 -0.06574334 0.015550289 0.06661715 -0.09921929 -0.1442257
-0.092103474 -0.121300854 0.00048507354 -0.056597307 -0.024456326 0.089961186 -0.06674265 -0.028633699
-0.007987085 -0.013978402 -0.054035272 -0.018126316 0.026698142 -0.0008386809 -0.0093651125 -0.07588985
0.05507639 -0.00092327775 0.007135602 -0.05127761 -0.14226395 -0.063534304 -0.044161238 -0.11319865
-0.02258536 0.063946456 -0.10531518 0.06629017 0.061086964 -0.008513937 0.074140914 -0.8360962
-0.07695632 0.11995103 0.0018935102 -0.013137938 0.8022132 0.03939976 -0.097204365 0.04779912
0.001927251 -0.023675758 -0.05224705 0.18119386 0.16466868 -0.06621323 -0.015892714 -0.07206102
-0.09944403 0.034324586 0.1426581 -0.08168134 -0.066140406 0.014518942 0.06882382 0.062252402
-0.02506502 -0.01880307 -0.09228891 -0.08314 -0.047302097 -0.09986993 -0.05873868 -0.05511688
-0.005792674 0.22166634 0.1179048 0.017622408 0.022940803 -0.08279718 -0.043469828 0.0034952946
0.018530592 0.14782579 -0.034412995 0.028134111 0.0057224357 -0.071035534 -0.015398843 -0.057780907
-0.017547963 -0.034405917 -0.121161014 -0.063304685 0.022056006 -0.010962903 -0.06835959 -0.059384756
00000000: 547c 9cbd de7c 1a3e afe6 9bbd 4915 cabd
00000010: fe35 163b 72e3 513d 6ddb 173c d22c 783e
00000020: eed4 76be a801 b6bd 6215 32be aa55 753d
00000030: e3c6 ba3d 58b2 7f3e cfe6 c9be 5393 92bc
00000040: 0ff8 653e 5390 4c3b d0b3 183e 219e 3abe
00000050: 244c 3a3d 0dd0 80be a3f1 583e 7d6a 873e
00000060: 737c 1abf ffde 20bb 0c55 b23e 9206 46bd
00000070: 5bbf 8cbe 3e00 91bd 5d61 00be e686 aebd
00000080: a590 afbd bd19 ec3c 413d 3d3d 3eae 5cbd
00000090: b77e 8cbd 5790 eebc da07 7abd 93c9 d8be
000000a0: 4699 85bd c6a6 d33d 0016 a7be ea48 30be
000000b0: ac2c 6ebd 09c8 a5be d74a 3cbe 275c 7d3d
000000c0: bc2a ccbd 3489 97bd d9ad 97bb 9c4a 563d
000000d0: b5e1 f0bd 28d7 903d f7eb 2a3e 84dd 8ebd
000000e0: 4c37 e33d c75a a4bc 4978 c03b cf28 24bf
000000f0: c743 40be 9949 9bbd 9be2 df3d 2ee5 8f3c
00000100: c925 52bc 0ae8 4c3e d0e5 90bc 2351 093e
00000110: aaf1 893d 91c7 9d3d 6bc6 c73e 2222 f5bd
00000120: 3a1e cd3e 3542 b43c 94be 7a3e 8ce4 893e
00000130: 06ab b03d a99d f5bd 7143 79bd 15a6 263d
00000140: 1503 103e ed25 443e 941d bbbc 583f 2cbd
00000150: 3d20 c9bd 8fb7 7d3d e55d babc 8ab8 2f3d
00000160: 6044 f23c 0189 b8bd 4131 cdbb 8a77 7abe
00000170: 3ec8 a8bd 777f e7bd 9b0a 333e 6d5c 743f
00000180: 6679 4cbc c612 3dbd 84c1 c6bd fe42 8cbd
00000190: 2a04 46be d3f5 80be 3516 e3bd 8c22 b8bd
000001a0: be3f 07bd 3dbc b7bd 2c8d 6cbd 098f dcb8
000001b0: 5dab c43c 806e ab3c e553 bc3e 1487 11bd
000001c0: ee40 583c 3744 aabd 4c4a fdbd ef76 1d3e
000001d0: a9d1 3abe a2f4 7c3e f429 3f3e f21b 1ebe
000001e0: 333e b6bd f383 4cbd d32a 77bd fa81 b0bc
000001f0: b72b 3e3f f9ae a33d b1d8 f33e efb5 6cbc
00000200: 557c 9bbd daf5 babb 1d64 91bd 41a1 3a3e
00000210: e1a3 bfbd d6ca a0bc 5616 28be 2da6 5fbd
00000220: 78e1 0b3d 6598 c73c 6e12 08be fa41 1cbd
00000230: 59e0 a8bc 6a26 00be 44fa eebd ee3c ebbd
00000240: f736 dcbd 914d 05bd 6974 8d3e 08d8 0ebe
00000250: e46d 473c 7338 95bd c793 953d b5b9 c1b8
00000260: 0efd 15be d7b2 a0bd 9f1a 82bd d98e 19bd
00000270: 48fa 89bd 69b3 0cbe 0b27 7c3d 6a63 cabc
00000280: 6f4e 56bd 2873 16be 5c83 03be 72a4 86bd
00000290: a4c6 7e3c 936e 883d 7c33 cbbd e7af 13be
000002a0: bfa0 bcbd 956c f8bd 7851 fe39 94d2 67bd
000002b0: a258 c8bc 923d b83d 5fb0 88bd 3891 eabc
000002c0: 43dc 02bc ab05 65bc 1754 5dbd a47d 94bc
000002d0: 10b6 da3c ecda 5bba 2170 19bc 236c 9bbd
000002e0: c897 613d 1f08 72ba c5d1 e93b 7908 52bd
000002f0: a4ad 11be 461e 82bd 6ae2 34bd b2d4 e7bd
00000300: ef04 b9bc 5cf6 823d 7caf d7bd 24c3 873d
00000310: 5336 7a3d 0a7e 0bbc 31d7 973d 670a 56bf
00000320: 469b 9dbd e3a8 f53d a92f f83a 8240 57bc
00000330: d85d 4d3f a561 213d 1513 c7bd 03c9 433d
00000340: d09b fc3a aaf3 c1bc 0101 56bd e28a 393e
00000350: e89e 283e cd9a 87bd 7031 82bc ba94 93bd
00000360: 50a9 cbbd f097 0c3d f714 123e 8c48 a7bd
00000370: 9f74 87bd dbe0 6d3c 81f3 8c3d 60fc 7e3d
00000380: 2855 cdbc e508 9abc f801 bdbd 4e45 aabd
00000390: d8bf 41bd 9b88 ccbd f897 70bd 3dc2 61bd
000003a0: 79d0 bdbb 80fc 623e 1278 f13d de5c 903c
000003b0: 5aee bb3c 9191 a9bd 6b0d 32bd 5011 653b
000003c0: 78cd 973c a55f 173e a4f4 0cbd 8279 e63c
000003d0: 4583 bb3b 147b 91bd 6e4b 7cbc acab 6cbd
000003e0: bfc0 8fbc 38ed 0cbd 4423 f8bd e3a5 81bd
000003f0: ccae b43c bf9d 33bc 1d00 8cbd 6e3d 73bd

px_r f4 [128]
0.019409211 0.05270466 0.002723671 0.0038601155 0.026865419 -0.08779558 0.015692068 -0.10484952
-0.012435666 0.061117683 -0.052388303 -0.014243581 0.08697764 0.037668187 0.000814527 0.0097812405
-0.04948052 0.015309059 0.084954664 0.038511217 0.10452826 0.058608875 -0.020066574 -0.015894605
0.05031283 0.0041482514 0.030225249 -0.09819262 0.021918448 0.013654225 -0.09845185 0.018205956
0.03941821 -0.0026296051 -0.098098576 0.09264224 -0.08865494 0.06262297 0.0043048575 -0.028328717
-0.07524369 0.09320154 0.08347926 -0.070163175 -0.015010191 -0.0703133 -0.055240076 -0.011133665
0.09549415 -0.005256182 0.104304254 -0.10516979 -0.021720592 0.014991774 -0.049079873 0.0032866797
-0.0006644113 0.07402224 -0.013531866 -0.01672531 0.060324743 -0.038581043 0.068640284 0.08957012
-0.062033847 0.013124779 -0.026807487 0.08289707 -0.013479765 -0.020138236 0.068663545 0.016409038
0.07009982 -0.03996693 -0.09269142 0.017466119 0.088528484 0.080003515 -0.04577852 0.0940352
-0.06567301 0.09940594 -0.006304467 -0.054346975 0.02324034 0.086650364 0.066990234 -0.054746088
0.026449205 0.04112564 -0.02555108 0.012031571 0.10029694 -0.02805552 0.08213856 -0.09031239
-0.039445437 0.024612093 -0.042043414 -0.07944786 -0.017454486 -0.05061384 0.042854484 0.05104249
-0.07478107 0.05803364 0.06303341 0.06804994 -0.06763303 -0.08408089 -0.0036137386 0.03676384
0.048331812 -0.08147951 0.08719864 0.10282408 -0.008310579 0.016754333 0.01845114 -0.07857134
-0.10107663 0.065401085 0.085535355 -0.0027321847 -0.09228861 0.0043451306 -0.069257855 0.036248527
00000000: 1100 9f3c d7e0 573d 9e7f 323b fef9 7c3b
00000010: de14 dc3c 2bce b3bd a78c 803c 58bb d6bd
00000020: f7be 4bbc 8956 7a3d 1e95 56bd e95d 69bc
00000030: 5521 b23d f549 1a3d fb85 553a 7f41 203c
00000040: 16ac 4abd d9d2 7a3c b6fc ad3d f0bd 1d3d
00000050: ea12 d63d dc0f 703d a862 a4bc 6735 82bc
00000060: d314 4e3d 0eee 873b f19a f73c 3619 c9bd
00000070: 518e b33c f8b5 5f3c 20a1 c9bd a824 953c
00000080: fd74 213d 7455 2cbb e8e7 c8bd 37bb bd3d
00000090: b990 b5bd 7940 803d c30f 8d3b a011 e8bc
000000a0: 5d19 9abd 73e0 be3d 2df7 aa3d b6b1 8fbd
000000b0: 4eed 75bc 6b00 90bd 6b43 62bd fa69 36bc
000000c0: 7092 c33d 0d3c acbb 789d d53d 4263 d7bd
000000d0: 62ef b1bc 0fa0 753c fa07 49bd 5665 573b
000000e0: e32b 2eba f998 973d c2b4 5dbc 8403 89bc
000000f0: 1417 773d 2807 1ebd 4793 8c3d 8a70 b73d
00000100: 3417 7ebd 5009 573c 609b dbbc f0c5 a93d
00000110: 3bda 5cbc f1f8 a4bc 799f 8c3d 3f6c 863c
00000120: 7f90 8f3d 5db4 23bd 00d5 bdbd 1b15 8f3c
00000130: 6c4e b53d e2d8 a33d 4282 3bbd 8795 c03d
00000140: 927f 86bd 5795 cb3d b495 cebb ef9a 5ebd
00000150: 8762 be3c bf75 b13d 2d32 893d 6f3d 60bd
00000160: 01ac d83c 5c73 283d 8050 d1bc 1120 453c
00000170: 7b68 cd3d b1d4 e5bc 4338 a83d b4f5 b8bd
00000180: 8a91 21bd 4d9f c93c b735 2cbd 8fb5 a2bd
00000190: b6fc 8ebc 7550 4fbd 2f88 2f3d ee11 513d
000001a0: d126 99bd afb4 6d3d a917 813d c45d 8b3d
000001b0: 3083 8abd 9a32 acbd 79d4 6cbb ae95 163d
000001c0: 94f7 453d bbde a6bd 3395 b23d 6e95 d23d
000001d0: 1829 08bc 6240 893c d826 973c 03ea a0bd
000001e0: 4401 cfbd 01f1 853d 292d af3d 740e 33bb
000001f0: d001 bdbd 9961 8e3b 10d7 8dbd 5679 143d

px_r f4 [128]
0.63779014 0.14901008 0.43108603 0.24756698 0.21788162 0.1709357 0.37200558 0.19345452
0.18447362 0.2544454 0.9976604 0.32779244 0.18098544 0.17888486 0.12211477 0.44020736
0.21053776 0.9967983 0.2943845 0.743016 0.20155525 0.4262075 0.18749191 0.29848504
0.21418312 0.13452281 0.23476416 0.22064675 0.71738064 0.22598016 0.35614845 0.18464442
0.19101483 0.1696236 0.17583859 0.27910396 0.396638 0.39647323 0.25461847 0.22070143
0.21642509 0.27478278 0.14695647 0.19819482 0.48588127 0.6725889 0.65386724 0.18771903
0.2868419 0.27273083 0.19246405 0.18241403 0.19469698 0.17785762 0.18576738 0.5480248
0.23244311 0.1911298 0.17177999 0.196031 0.3364661 0.7402039 0.5950189 0.7909602
0.17900723 0.30877042 0.1601954 0.1861294 0.18678659 0.41037557 0.14868416 0.251004
0.23195405 0.2535037 0.1671082 0.61668205 0.19747607 0.18022875 0.8895331 0.18189295
0.3951847 0.20940626 0.21170749 0.23388211 0.5641123 0.29418138 0.19839005 0.20550689
0.14798954 0.19374225 0.35659686 0.27851936 0.20962769 0.22570734 0.4794423 0.19930811
0.26620823 0.17156975 0.17050481 0.33323568 0.43064478 0.18429266 0.19550908 0.21186323
0.16692166 0.69526243 0.7511708 0.17817232 0.16633843 0.1531554 0.4717246 0.69579154
0.22759607 0.26179972 0.23385838 0.6652247 1.0052799 0.17559488 0.15714197 0.3053935
0.30013812 0.20045337 0.38578045 0.37726521 0.17592628 0.16088806 0.20161018 0.18037678
00000000: 3746 233f 1996 183e 4fb7 dc3e 3382 7d3e
00000010: 5c1c 5f3e c509 2f3e 8477 be3e f118 463e
00000020: a7e6 3c3e ab46 823e ac66 7f3f 69d4 a73e
00000030: 3f54 393e 982d 373e 4f17 fa3d dc62 e13e
00000040: 3697 573e 2c2e 7f3f 91b9 963e 4c36 3e3f
00000050: 8064 4e3e df37 da3e e1fd 3f3e 08d3 983e
00000060: d252 5b3e 59c0 093e 0466 703e 39f1 613e
00000070: 42a6 373f 5867 673e 1759 b63e 6d13 3d3e
00000080: 6499 433e cfb1 2d3e 080f 343e b7e6 8e3e
00000090: 2314 cb3e 8afe ca3e 5a5d 823e 8eff 613e
000000a0: 8a9e 5d3e 54b0 8c3e c27b 163e 95f3 4a3e
000000b0: 6ec5 f83e c92e 2c3f d863 273f 6b39 403e
000000c0: f1dc 923e 60a3 8b3e 4c15 453e beca 3a3e
000000d0: a55e 473e 4f20 363e ce39 3e3e 5a4b 0c3f
000000e0: 9105 6e3e 88b7 433e 18e7 2f3e 5abc 483e
000000f0: 4945 ac3e 017e 3d3f 2953 183f 5e7c 4a3f
00000100: ac4d 373e 2817 9e3e 430a 243e b598 3e3e
00000110: fc44 3f3e bf1c d23e a940 183e 9983 803e
00000120: 5d85 6d3e 3dcb 813e 691e 2b3e e0de 1d3f
00000130: 2b37 4a3e e38d 383e 71b8 633f 2542 3a3e
00000140: a655 ca3e 986e 563e d9c9 583e cb7e 6f3e
00000150: aa69 103f f19e 963e c326 4b3e 6670 523e
00000160: 928a 173e 5e64 463e dd93 b63e 179a 8e3e
00000170: a4a8 563e d31f 673e 7679 f53e 6d17 4c3e
00000180: 724c 883e fbaf 2f3e d098 2e3e de9d aa3e
00000190: 797d dc3e 37b7 3c3e 8833 483e adf2 583e
000001a0: 83ed 2a3e b8fc 313f bb4c 403f ce72 363e
000001b0: 9f54 2a3e c5d4 1c3e e385 f13e 651f 323f
000001c0: f20e 693e 9d0a 863e 9278 6f3e 2a4c 2a3f
000001d0: 03ad 803f 25cf 333e d3e9 203e 895c 9c3e
000001e0: b4ab 993e a643 4d3e 0485 c53e e828 c13e
000001f0: 0526 343e d7bf 243e e672 4e3e b1b4 383e

px_r f4 [128]
-0.2067777 0.028655702 -0.21694934 0.17377582 0.016886156 0.021151787 0.06888569 0.039633818
0.027752286 -0.07049032 -0.6265553 0.034093253 0.020922827 0.034810625 0.057138473 -0.5380786
0.016482614 -0.90685976 -0.14769924 -0.41923746 -0.036550485 -0.20937821 0.036372468 -0.19891655
-0.027524695 0.034058604 0.08692729 0.068443805 -0.54973185 0.089393154 -0.054072432 -0.022582833
-0.0110336365 0.01761627 0.07163206 -0.10615571 0.12610814 -0.00610571 0.15308154 -0.014637049
0.03275701 0.13423745 0.043567415 -0.005416382 -0.099775195 -0.25874028 -0.50910926 0.10484856
-0.21787815 0.15630715 0.04859888 0.08981612 0.11799744 0.0938487 0.017451387 -0.788078
-0.14304046 0.0011809003 0.008438602 -0.023077246 -0.24716075 -0.7076345 -0.9984039 -1.1751255
0.017942982 0.14272526 -0.006652867 -0.026245687 0.016590472 -0.27275097 0.032572545 -0.020899037
-0.013363874 -0.24792247 0.07960663 -0.9916609 0.020210536 0.07650448 -0.9149217 0.049385846
-0.50544494 0.10398992 -0.03224366 0.040272515 -0.42091838 -0.01296103 -0.04098371 0.001055002
0.026489973 0.023224564 -0.15986407 -0.061486237 0.01589007 0.019909175 -0.43358088 0.13381372
-0.0012353129 0.04975553 0.017832555 -0.032875657 -0.39245903 0.056786913 -0.06328734 0.010982308
0.03159884 -1.8217238 -1.4517701 0.009466126 0.045514256 0.049386825 -0.18473363 -0.53642344
0.07542277 0.17882991 -0.034426775 -0.5098599 -1.0594677 0.10620043 -0.011557552 -0.024200525
-0.080290206 -0.07305391 -0.06449102 0.011198254 0.0038124658 0.06449771 0.04562183 0.0155521715
00000000: 89bd 53be 5dbf ea3c f827 5ebe 4af2 313e
00000010: d654 8a3c 8346 ad3c f113 8d3d 1257 223d
00000020: c358 e33c 3b5d 90bd ee65 20bf 5ea5 0b3d
00000030: 5966 ab3c 9695 0e3d 080a 6a3d 85bf 09bf
00000040: 8c06 873c f627 68bf 783e 17be 4ba6 d6be
00000050: f6b5 15bd 3e67 56be 4cfb 143d c8b0 4bbe
00000060: 787b e1bc 0981 0b3d ef06 b23d 442c 8c3d
00000070: 3abb 0cbf c213 b73d 0e7b 5dbd a2ff b8bc
00000080: 6dc6 34bc ff4f 903c d4b3 923d 2a68 d9bd
00000090: 7e22 013e 6812 c8bb 68c1 1c3e 3cd0 6fbc
000000a0: 372c 063d 8b75 093e bf73 323d e87b b1bb
000000b0: f056 ccbd 9b79 84be fc54 02bf d8ba d63d
000000c0: 731b 5fbe fb0e 203e 9f0f 473d 84f1 b73d
000000d0: a4a8 f13d bf33 c03d 36f6 8e3c 7bbf 49bf
000000e0: 3379 12be 70c8 9a3a 1042 0a3c 7e0c bdbc
000000f0: b517 7dbe 8927 35bf 6697 7fbf 836a 96bf
00000100: 29fd 923c 9226 123e 4b00 dabb 3201 d7bc
00000110: bee8 873c 04a6 8bbe ca6a 053d 7534 abbc
00000120: 26f4 5abc 63df 7dbe cd08 a33d 7ddd 7dbf
00000130: 9190 a53c 61ae 9c3d 4f38 6abf d048 4a3d
00000140: d764 01bf abf8 d43d ee11 04bd cbf4 243d
00000150: 9d82 d7be 805a 54bc 89de 27bd fe47 8a3a
00000160: 8001 d93c 7141 be3c 68b3 23be fed8 7bbd
00000170: e42b 823c 9118 a33c 50fe ddbe 7706 093e
00000180: 39ea a1ba 74cc 4b3d 9415 923c a0a8 06bd
00000190: 64f0 c8be 6599 683d cb9c 81bd 23ef 333c
000001a0: c96d 013d 3f2e e9bf 9ad3 b9bf cf17 1b3c
000001b0: 286d 3a3d d749 4a3d d02a 3dbe 0c53 09bf
000001c0: 4177 9a3d 301f 373e 1703 0dbd 2e86 02bf
000001d0: a39c 87bf 9c7f d93d e35b 3dbc 2e40 c6bc
000001e0: 316f a4bd 4a9d 95bd de13 84bd e278 373c
000001f0: 90da 793b 6017 843d f5dd 3a3d 89ce 7e3c

px_r f4 [128]
-4.0539136 3.34905 -0.33216557 1.6849489 -3.993252 -0.67813444 1.2531987 1.173377
3.0645268 2.536174 -2.5094519 -2.728934 -2.2822037 -1.7410207 0.75648093 -1.2975804
0.9029373 -1.5518895 -0.27735975 -3.3097975 -0.06832802 -0.048064075 1.6755866 1.1926363
1.4096025 4.5218124 -2.140147 0.89724255 1.6447088 -0.50918263 0.64158523 1.7354934
-1.6860656 0.0005874173 -0.98933774 -3.7034352 -0.79092014 -1.7116582 -0.48773095 -0.31795338
-0.014191551 -0.43776378 -0.52442586 2.0570261 -1.4591508 -2.2001197 -2.2501853 -4.1027236
1.2157806 -0.7889977 -1.0955083 -3.2577684 -2.3150756 -1.5118858 -0.27073684 -0.06579755
-0.68295395 -0.5615619 -0.045974094 2.496816 1.14229 0.3649204 -0.7791874 -1.5207102
-2.7098563 -1.761156 -0.54408467 -0.8691545 -0.5602873 -0.17238677 -0.1377368 0.60604835
1.7145512 0.6568994 -0.507348 -0.50828063 0.03688765 -3.461833 -2.0719182 -0.9937344
-1.5266986 -1.34815 -1.3526881 1.2904506 -3.5879195 -1.1888072 1.1361097 -0.82911426
1.3326491 0.77249974 0.58001417 -1.1178644 2.6544075 1.5479355 3.9035702 -0.4088061
-3.9206352 -1.1359477 4.333082 -4.5149713 -0.7201991 -1.2084857 -1.7590405 -0.3274486
0.49382356 -3.016288 -0.041042905 -2.179059 -3.8892848 0.92516816 4.661 -0.64148927
-3.012531 1.4479957 2.0517962 -0.28387016 -4.4226675 -1.4344884 0.44215953 1.9855287
-1.4971927 0.28196502 1.0152005 -0.7837159 -2.8894222 0.043196615 -0.11258881 -2.5738497
00000000: a9b9 81c0 d656 5640 9b11 aabe 68ac d73f
00000010: 7191 7fc0 389a 2dbf d168 a03f 3831 963f
00000020: 3521 4440 ad50 2240 dc9a 20c0 dba6 2ec0
00000030: a00f 12c0 c4d9 debf bca8 413f 1d17 a6bf
00000040: e626 673f 51a4 c6bf 1902 8ebe b9d3 53c0
00000050: 90ef 8bbd d6de 44bd 9f79 d63f 4ea8 983f
00000060: db6d b43f b0b2 9040 2bf8 08c0 b0b1 653f
00000070: d185 d23f cb59 02bf ee3e 243f a624 de3f
00000080: ffd0 d7bf e8fc 193a 3d45 7dbf 1505 6dc0
00000090: be79 4abf 9e17 dbbf dfb7 f9be c9ca a2be
000000a0: ae83 68bc 9322 e0be c640 06bf 51a6 0340
000000b0: 74c5 babf c3ce 0cc0 0903 10c0 8349 83c0
000000c0: b39e 9b3f c1fb 49bf 9e39 8cbf 477f 50c0
000000d0: 332a 14c0 7985 c1bf 059e 8abe dec0 86bd
000000e0: 12d6 2ebf 85c2 0fbf 554f 3cbd d5cb 1f40
000000f0: 8f36 923f d9d6 ba3e d378 47bf a2a6 c2bf
00000100: 496e 2dc0 8f6d e1bf 2249 0bbf e980 5ebf
00000110: fd6e 0fbf 2886 30be e00a 0dbe fc25 1b3f
00000120: 6a76 db3f 8f2a 283f 8fe1 01bf ae1e 02bf
00000130: 8117 173d ac8e 5dc0 4f9a 04c0 6165 7ebf
00000140: dc6a c3bf 2e90 acbf e224 adbf 7c2d a53f
00000150: 79a0 65c0 d62a 98bf 0b6c 913f d540 54bf
00000160: 3f94 aa3f 8bc2 453f cf7b 143f 2e16 8fbf
00000170: d0e1 2940 c022 c63f 18d4 7940 084f d1be
00000180: b0eb 7ac0 bc66 91bf 9ca8 8a40 a57a 90c0
00000190: f85e 38bf a9af 9abf 3d28 e1bf 58a7 a7be
000001a0: 71d6 fc3e dd0a 41c0 9b1c 28bd b475 0bc0
000001b0: 0bea 78c0 d2d7 6c3f e926 9540 a438 24bf
000001c0: 4fcd 40c0 ec57 b93f a150 0340 6e57 91be
000001d0: 7e86 8dc0 519d b7bf bc62 e23e ce25 fe3f
000001e0: 03a4 bfbf b85d 903e 17f2 813f 9ba1 48bf
000001f0: 4bec 38c0 efee 303d f694 e6bd f4b9 24c0

px_r f4 [128]
4.043133 1.4293627 6.098776 4.3635244 2.7740085 1.1214008 2.5368803 1.4297992
1.8394561 2.0344877 11.484607 3.4788537 1.1750811 1.7184626 1.0374892 1.2094669
1.3496513 6.603262 0.9270467 5.4405446 1.0778283 7.2765503 1.2551949 0.5289972
1.1589717 1.6030092 3.9986246 2.5768175 2.581236 3.194122 5.074308 0.95452267
1.0327164 1.2965621 1.9360473 3.105612 6.3794966 2.9675562 2.9620488 1.2539446
1.8497516 4.27289 0.8907435 1.0338515 3.1218457 6.9136205 6.395102 3.1306605
0.8563986 4.758247 1.4783075 3.304323 5.4906383 2.2177303 0.98391753 0.9210064
1.0085964 1.5508614 1.787719 0.8427158 1.4993186 1.6343207 4.387226 7.326541
1.9283862 3.0732656 1.1775209 1.0069692 1.0443643 1.3290074 1.2464267 1.4298326
0.7907019 0.8303666 2.2123177 0.96179277 1.3921775 2.5667233 5.1437683 1.5546454
0.78312373 3.6549938 2.2978418 1.5151551 3.7247882 2.630217 1.0601205 1.0156336
1.2826799 0.9534472 1.2615763 3.125903 1.0287365 1.8840424 3.8037758 2.9057574
2.5773356 1.5482416 0.9988797 7.107815 4.0814843 1.2393247 1.0620035 0.7932182
1.425033 1.9272026 1.7667865 1.4968415 2.044886 1.1011112 2.7543721 4.9763327
2.5015204 6.036214 1.2137302 2.3539479 12.451257 1.464655 1.1233516 2.73504
5.464709 0.89612484 4.8553596 4.432248 1.2051108 1.4662491 1.3779618 1.8508171
00000000: 5861 8140 5bf5 b63f 2c29 c340 fea1 8b40
00000010: 5b89 3140 108a 8f3f 3f5c 2240 a903 b73f
00000020: 4c73 eb3f 0c35 0240 f3c0 3741 8aa5 5e40
00000030: 0f69 963f 95f6 db3f 72cc 843f d0cf 9a3f
00000040: 60c1 ac3f ec4d d340 ef52 6d3f f118 ae40
00000050: 47f6 893f 80d9 e840 3aaa a03f 5c6c 073f
00000060: 2f59 943f 682f cd3f 77e9 7f40 94ea 2440
00000070: f832 2540 7f6c 4c40 bb60 a240 995b 743f
00000080: 0d30 843f bff5 a53f 66d0 f73f 59c2 4640
00000090: d624 cc40 71ec 3d40 3592 3d40 4281 a03f
000000a0: a9c4 ec3f 84bb 8840 c407 643f 3f55 843f
000000b0: 52cc 4740 613c dd40 ada4 cc40 be5c 4840
000000c0: f03c 5b3f 8f43 9840 2e39 bd3f 077a 5340
000000d0: 4fb3 af40 4bef 0d40 05e2 7b3f 13c7 6b3f
000000e0: b019 813f a082 c63f fad3 e43f 39bc 573f
000000f0: ace9 bf3f 6c31 d13f 2864 8c40 0673 ea40
00000100: 5cd5 f63f 62b0 4440 01b9 963f 5ee4 803f
00000110: bbad 853f ea1c aa3f e98a 9f3f c104 b73f
00000120: 716b 4a3f e892 543f 9d96 0d40 0d38 763f
00000130: df32 b23f 3245 2440 c099 a440 9ffe c63f
00000140: cc7a 483f 6beb 6940 d70f 1340 9af0 c13f
00000150: ee62 6e40 7a55 2840 07b2 873f 4800 823f
00000160: db2e a43f 1e15 743f 557b a13f cb0e 4840
00000170: a3ad 833f 4d28 f13f 1071 7340 eef7 3940
00000180: 11f3 2440 c82c c63f 94b6 7f3f 3873 e340
00000190: 859b 8240 31a2 9e3f bbef 873f 5910 4b3f
000001a0: 7b67 b63f 93ae f63f 0f26 e23f 8198 bf3f
000001b0: 6adf 0240 36f1 8c3f a247 3040 1e3e 9f40
000001c0: e918 2040 aa28 c140 835b 9b3f 15a7 1640
000001d0: 5938 4741 d179 bb3f fcc9 8f3f e50a 2f40
000001e0: e5de ae40 7068 653f 1b5f 9b40 fad4 8d40
000001f0: 1241 9a3f 0dae bb3f 0d61 b03f 93e7 ec3f

z_encoder.mean_encoder.weight f4 [10, 128]
-0.009086365 -0.48438445 -0.0043580253 -0.031966783 -0.09667481 -0.046654154 -0.03340695 -0.05353705
0.23720104 -0.0675422 0.02612233 -0.03089391 0.07315432 -0.29066622 -0.12876736 -0.09129457
0.046633173 -0.03397002 0.16344634 -0.019859742 -0.07462822 0.009285661 -0.0038429063 0.06599413
-0.027020289 -0.0038402553 -0.042658806 -0.008743851 0.01877261 0.03904067 0.08936973 -0.04570111
-0.6825707 0.15309548 0.038608592 0.009732625 -0.0037354329 -0.004241724 -0.02499675 0.0033469677
0.02147071 -0.018864727 -0.1758949 0.058460202 -0.040789444 0.056039073 -0.030586384 -0.021957198
-0.055588726 0.0010145358 0.04832462 0.0027738244 0.10988935 0.29118147 0.059957538 0.12839696
0.07452354 0.01660315 0.09170959 0.09628071 -0.056397125 0.3226482 -0.060329 0.0006048761
-0.06803473 -0.025644923 0.077488884 0.10085741 0.05009794 0.071742535 0.18511018 -0.0022381952
-0.046743456 -0.8026443 0.07685465 -0.36216933 0.04690721 0.0024386172 0.12289341 0.04929483
0.0007069208 -0.041482516 0.14422247 -0.029214911 -0.003557684 0.33034888 0.007524047 -0.06361372
-0.14461699 -0.02821397 0.029911207 -0.039402958 -0.116202116 -0.032913614 -0.041808292 -0.039104395
0.29214555 0.13545391 -0.012728052 -0.015084195 -0.08141823 0.03790403 -0.62121916 -0.007646314
0.06964904 0.11104149 0.021091074 -0.41421697 0.15918258 -0.020184925 0.34045506 -0.0091614565
0.0606296 0.0035702994 -0.15059981 -0.08593927 -0.06397103 -0.010048916 0.29234427 -0.008665157
-0.00602848 0.13852271 0.07796637 -0.0014794429 -0.0199032 0.004453187 -0.12592658 -0.08182742
0.10528082 0.22120313 -0.11920381 0.02955262 -0.024460675 -0.21928433 0.04463358 -0.24668565
0.15093176 0.050489843 -0.12103208 0.049530655 0.06656266 -0.189654 -0.12723637 -0.22066864
0.026363827 0.07217372 -0.2403193 0.13041584 -0.6109473 -0.013473258 -0.16123796 0.006037501
0.046084326 -0.036055855 -0.049721386 -0.0259994 -0.051941074 -0.018092886 -0.18879952 0.7966852
0.072557464 -0.24237369 -0.0863278 -0.044320647 -0.08208114 -0.0770979 0.11009236 -0.14931388
-0.16248593 -0.0054812087 0.0627222 0.37433043 -0.011182545 0.03166945 -0.07644351 -0.009950003
-0.072376564 0.01810316 0.32114932 0.07594433 0.012245183 -0.017112283 -0.31493127 0.3074762
0.17827348 0.039403044 -0.06775733 0.73105544 -0.5774368 0.12260606 -0.25298595 0.051985916
0.11356748 0.09764064 0.15899056 0.07614961 0.16556962 -0.08201409 0.07920437 0.22938333
-0.6558153 0.067470275 0.009987712 0.44475707 0.010815678 0.09347787 0.1365292 -0.285452
0.5987649 0.109255776 -0.24792531 0.10709659 0.091718614 -0.04937402 -0.5210081 0.25409716
-0.6586458 -0.05902874 -0.006805207 -0.098274134 -0.104650974 0.0510786 0.024863902 -0.14594324
0.019066429 0.06619469 0.07801039 -0.02467262 -0.09446397 -0.017099144 -0.067289874 0.52144015
0.14058398 0.89798343 -0.11836863 -0.17484933 -0.20945124 0.32029003 0.019244742 -0.12585668
-0.07429495 -0.023708804 -0.021249328 0.05988995 -0.116222024 0.02207162 -0.47224697 -0.08865329
-0.17789021 -0.047778063 -0.15977083 -0.041232973 -0.53368527 0.0034478097 -0.12830575 0.11402065
00000000: fade 14bc 3d01 f8be c4cd 8ebb 9aef 02bd
00000010: 71fd c5bd 6d18 3fbd bad5 08bd aa49 5bbd
00000020: d4e4 723e 9153 8abd 7ffe d53c 3a15 fdbc
00000030: efd1 953d 34d2 94be 97db 03be a6f8 babd
00000040: 6d02 3f3d 2624 0bbd 7a5e 273e e6b0 a2bc
00000050: aed6 98bd e322 183c 45d9 7bbb ee27 873d
00000060: a759 ddbc cbac 7bbb 00bb 2ebd 5f42 0fbc
00000070: 04c9 993c 1ce9 1f3d 7a07 b73d 1631 3bbd
00000080: f4bc 2ebf 10c5 1c3e 0b24 1e3d 9775 1f3c
00000090: 2ace 74bb 29fe 8abb fcc5 ccbc cd58 5b3b
000000a0: 58e3 af3c 338a 9abc cb1d 34be f773 6f3d
000000b0: d512 27bd 3a89 653d 4c90 fabc 95df b3bc
000000c0: 01b1 63bd 2cfa 843a 09f0 453d 0dc9 353b
000000d0: ab0d e13d bd15 953e 0996 753d 7e7a 033e
000000e0: cc9f 983d 5403 883c 3dd2 bb3d d22e c53d
000000f0: ac00 67bd 2532 a53e 8b1b 77bd 8c90 1e3a
00000100: cb55 8bbd 4d15 d2bc 7eb2 9e3d 548e ce3d
00000110: 7f33 4d3d c0ed 923d 868d 3d3e afae 12bb
00000120: 1176 3fbd 197a 4dbf f965 9d3d 426e b9be
00000130: c621 403d 35d1 1f3b 8aaf fb3d 60e9 493d
00000140: a750 393a 92e9 29bd 0eaf 133e 1c54 efbc
00000150: 0828 69bb 7d23 a93e 488c f63b e947 82bd
00000160: 7a16 14be fc20 e7bc 5908 f53c ff64 21bd
00000170: 60fb edbd 6dd0 06bd 2c3f 2bbd ee2b 20bd
00000180: 1a94 953e 6eb4 0a3e 5289 50bc b323 77bc
00000190: 9abe a6bd 4241 1b3d 3808 1fbf ee8d fabb
000001a0: 28a4 8e3d b969 e33d 30c7 ac3c 3f14 d4be
000001b0: c200 233e db5a a5bc 2050 ae3e ef19 16bc
000001c0: be56 783d affb 693b d636 1abe ee00 b0bd
000001d0: 3e03 83bd 35a4 24bc 26ae 953e 4df8 0dbc
000001e0: 8e8a c5bb e6d8 0d3e d5ac 9f3d dee9 c1ba
000001f0: 090c a3bc 0aec 913b e6f2 00be 2295 a7bd
00000200: 789d d73d 1383 623e 2121 f4bd 5618 f23c
00000210: c161 c8bc 128c 60be b3d1 363d 2a9b 7cbe
00000220: db8d 1a3e 70ce 4e3d abdf f7bd a8e0 4a3d
00000230: 0152 883d a834 42be 404a 02be f6f6 61be
00000240: f4f8 d73c d1cf 933d 4316 76be bb8b 053e
00000250: 0b67 1cbf f1be 5cbc 901b 25be 3bd6 c53b
00000260: ebc2 3c3d 4eaf 13bd a7a8 4bbd b2fc d4bc
00000270: 2ac0 54bd 8837 94bc a954 41be 90f3 4b3f
00000280: 0299 943d cf30 78be a1cc b0bd 9189 35bd
00000290: 281a a8bd 81e5 9dbd 1a78 e13d bde5 18be
000002a0: b662 26be b69b b3bb 7f74 803d 3da8 bf3e
000002b0: fe36 37bc d3b7 013d 6a8e 9cbd 5605 23bc
000002c0: 2a3a 94bd 144d 943c af6d a43e b388 9b3d
000002d0: 05a0 483c 0f2f 8cbc ac3e a1be 856d 9d3e
000002e0: 538d 363e 1665 213d 5bc4 8abd 7326 3b3f
000002f0: e6d2 13bf e318 fb3d 6087 81be 2fef 543d
00000300: 1196 e83d d1f7 c73d 6cce 223e 54f4 9b3d
00000310: 158b 293e 01f7 a7bd e735 a23d 77e3 6a3e
00000320: 83e3 27bf db2d 8a3d 80a3 233c 33b7 e33e
00000330: 3e34 313c 5371 bf3d 50ce 0b3e c426 92be
00000340: a848 193f 7ec1 df3d 22e0 7dbe 7555 db3d
00000350: f8d6 bb3d 6a3c 4abd c960 05bf 0619 823e
00000360: 039d 28bf 1fc8 71bd 37fe debb f343 c9bd
00000370: 4053 d6bd cb37 513d 62af cb3c 2572 15be
00000380: 3331 9c3c 1591 873d e9c3 9f3d 3c1e cabc
00000390: 5376 c1bd 8113 8cbc 46cf 89bd 1a7d 053f
000003a0: 3ff5 0f3e 3ee2 653f 416b f2bd b40b 33be
000003b0: 637a 56be 0efd a33e 26a7 9d3c 93e0 00be
000003c0: f327 98bd f738 c2bc 1213 aebc 2a4f 753d
000003d0: d005 eebd 8bcf b43c 5bca f1be db8f b5bd
000003e0: da28 36be eeb2 43bd f79a 23be e8e3 28bd
000003f0: 999f 08bf a6f4 613b 9562 03be a983 e93d

z_encoder.mean_encoder.bias f4 [10]
-0.0006022958 0.2123696 0.2372996 -0.44012773 -0.09713888 -0.48408797 -0.11063375 0.015188079
-0.29574442 -0.40506148
00000000: 63e3 1dba 6b77 593e abfe 723e 6c58 e1be
00000010: c0f0 c6bd 61da f7be f393 e2bd 6cd7 783c
00000020: d06b 97be 3864 cfbe

z_encoder.var_encoder.weight f4 [10, 128]
-0.035751935 -0.042126186 0.01048991 0.0594287 0.09881703 0.011877016 0.01247133 0.05157104
-0.08302631 -0.038628116 -0.030689495 0.05316417 0.0050200685 0.08125411 0.14722702 -0.07942831
-0.003158352 -0.00045184075 -0.01931882 0.014240899 0.04994354 -0.019176988 0.09533295 -0.032874264
0.0073180236 0.035533145 0.046532203 0.089855425 -0.04041751 0.023817 -0.024257736 -0.30001616
-0.037095416 -0.01654887 -0.0072354344 -0.014078567 0.023752626 -0.006257392 0.025103202 0.015757916
0.04817238 0.05022047 0.049976327 0.06390408 -0.013605247 -0.0024851873 0.011248022 0.015972335
-0.08016349 0.037543353 -0.038421843 0.008211973 0.1309361 0.16797113 0.027316159 -0.063430965
-0.09184365 -0.11012948 -0.0017415499 0.005635001 -0.033785712 0.12336949 0.063153535 -0.042085
-0.01819917 0.032087374 -0.2688496 -0.06247406 -0.10463211 -0.01123434 0.059396245 0.0061336793
0.09000313 -0.26758155 -0.028008187 -0.01565927 -0.0042211525 0.028590664 -0.09547256 0.05153222
-0.084167935 0.02728172 -0.08992885 -0.009222153 0.013120117 0.064329356 -0.020093918 0.04161677
-0.07422628 0.0061426223 -0.018787934 -0.0057707373 -0.033384655 0.044472612 -0.06193721 0.057482343
0.08531656 -0.07232507 0.043374654 0.038084142 -0.007567993 -0.038393468 -0.13836382 0.037234034
0.02247626 -0.098652676 -0.025920663 -0.07208895 0.11728843 0.060143165 0.04899445 0.0025615252
0.035883117 0.042958014 0.02655019 0.022462005 -0.07443195 0.043122802 -0.11277139 -0.04053307
0.019361006 -0.07522248 -0.017388314 0.005859133 0.004794946 0.06338208 0.10516723 -0.018349806
0.023382772 0.03339121 0.0054100747 0.020715095 0.07165096 -0.040682077 -0.004273425 0.09959707
-0.02771936 -0.07178306 0.010639679 0.023003722 -0.047370654 -0.009541601 0.10103362 -0.06445271
0.02648401 0.0028480566 -0.0331296 0.04380781 -0.020371864 0.021552775 0.03618005 -0.053168327
-0.003457124 -0.028708741 0.0756997 0.083254054 -0.048618153 0.09716077 4.639477e-05 -0.049360987
0.0012065173 -0.08644098 0.02861973 0.0039899843 0.017288702 0.02159479 0.020341828 -0.01218728
0.02631488 0.049959455 -0.019044228 0.04097974 -0.03371425 0.0039976817 0.004944472 0.09749218
-0.042635214 0.05205998 0.013811564 0.010558034 0.10869609 0.06055869 0.028605385 -0.088621035
0.0007844116 -0.09859743 0.009708279 0.009875851 -0.19550939 0.024908628 -0.01689144 -0.10688028
-0.03422567 0.00039610022 -0.3321948 -0.056147683 -0.08610208 -0.025886005 -0.002508698 0.08737602
-0.038371984 -0.025500497 0.0044238376 -0.14900571 0.016684938 0.05493315 -0.10614639 0.040303748
-0.11152543 0.061135657 -0.069401056 0.01070691 0.058976527 0.013451006 -0.009603101 0.015480347
-0.09962682 -0.03823908 -0.007122866 0.0046524336 0.014427829 0.06700694 -0.09504158 0.08321734
-0.006293913 -0.15054399 -0.082291886 0.011433967 -0.06068126 0.05931822 0.04928282 0.03596043
0.043365967 -0.015412854 -0.09215703 -0.058696106 0.015592311 -0.05431667 -0.007195318 -0.016863277
0.04734049 0.026826372 -0.044790633 0.022760207 -0.0873635 -0.011118842 -0.119189404 -0.0086725
0.055178948 -0.043635026 -0.036679268 0.03492282 -0.031601295 0.03412446 0.06537591 0.05715585
00000000: 9f70 12bd 828c 2cbd dfdd 2b3c 826b 733d
00000010: 9560 ca3d d197 423c 8d54 4c3c 283c 533d
00000020: b309 aabd 8438 1ebd 8968 fbbc acc2 593d
00000030: 637f a43b 8e68 a63d aec2 163e 4fab a2bd
00000040: 5bfc 4ebb 0ae5 ecb9 8142 9ebc a952 693c
00000050: 9991 4c3d 0f19 9dbc ec3d c33d 2aa7 06bd
00000060: 08cc ef3b 348b 113d 8d98 3e3d 1f06 b83d
00000070: d58c 25bd df1b c33c 29b8 c6bc b89b 99be
00000080: 5df1 17bd 7f91 87bc 3917 edbb caa9 66bc
00000090: de94 c23c cf0a cdbb 3ba5 cd3c bf16 813c
000000a0: 6750 453d fbb3 4d3d fab3 4c3d 24e0 823d
000000b0: 8be8 5ebc 86de 22bb a049 383c 6ad8 823c
000000c0: c12c a4bd 0fc7 193d 3960 1dbd 838b 063c
000000d0: 1d14 063e a000 2c3e 23c6 df3c 18e8 81bd
000000e0: 8618 bcbd 918b e1bd b844 e4ba d1a5 b83b
000000f0: e362 0abd 25a9 fc3d a456 813d 5261 2cbd
00000100: 6d16 95bc 0d6e 033d a8a6 89be cde4 7fbd
00000110: 5c49 d6bd 3d10 38bc 7a49 733d 08fd c83b
00000120: 9053 b83d 7300 89be 6d71 e5bc df47 80bc
00000130: 9851 8abb f836 ea3c 1e87 c3bd 7313 533d
00000140: 3d60 acbd ea7d df3c 9e2c b8bd 8318 17bc
00000150: c2f5 563c 1cbf 833d 009c a4bc 5976 2a3d
00000160: f303 98bd 0d48 c93b 27e9 99bc 7418 bdbb
00000170: 59be 08bd ea28 363d dfb1 7dbd 9b72 6b3d
00000180: 73ba ae3d 2b1f 94bd 9fa9 313d 1efe 1b3d
00000190: edfc f7bb 7842 1dbd 3faf 0dbe b782 183d
000001a0: 2220 b83c 6a0a cabd 9257 d4bc 5fa3 93bd
000001b0: eb34 f03d ae58 763d 68ae 483d 43df 273b
000001c0: 2dfa 123d bef4 2f3d c97f d93c 3d02 b83c
000001d0: c76f 98bd 89a1 303d b0f4 e6bd 0106 26bd
000001e0: f99a 9e3c 3e0e 9abd f071 8ebc f8fd bf3b
000001f0: ec1e 9d3b 77ce 813d eb61 d73d 5552 96bc
00000200: 3a8d bf3c 39c5 083d ff46 b13b b4b2 a93c
00000210: bdbd 923d 40a2 26bd 1608 8cbb 8cf9 cb3d
00000220: b613 e3bc ff02 93bd 0c52 2e3c 4d72 bc3c
00000230: bb07 42bd 6054 1cbc b7ea ce3d c8ff 83bd
00000240: fff4 d83c 76a6 3a3b e7b2 07bd d16f 333d
00000250: e5e2 a6bc 728f b03c 8831 143d 08c7 59bd
00000260: eb90 62bb 982e ebbc 7208 9b3d 1a81 aa3d
00000270: d423 47bd 3afc c63d 0198 4238 bf2e 4abd
00000280: 0124 9e3a f807 b1bd ed73 ea3c 6abe 823b
00000290: 09a1 8d3c 8fe7 b03c e8a3 a63c 28ad 47bc
000002a0: 4e92 d73c 49a2 4c3d a402 9cbc 5fda 273d
000002b0: f417 0abd fcfe 823b 3d05 a23b fba9 c73d
000002c0: 43a2 2ebd d83c 553d e649 623c 9bfb 2c3c
000002d0: 0e9c de3d 640c 783d d755 ea3c f27e b5bd
000002e0: f9a0 4d3a 73ed c9bd 790f 1f3c 52ce 213c
000002f0: 9d33 48be 2e0d cc3c eb5f 8abc 0ce4 dabd
00000300: 3730 0cbd acab cf39 7015 aabe 1dfb 65bd
00000310: 4a56 b0bd e30e d4bc f868 24bb 33f2 b23d
00000320: f12b 1dbd 6be6 d0bc d7f5 903b f494 18be
00000330: daae 883c 9501 613d 4763 d9bd 8b15 253d
00000340: 7267 e4bd 6269 7a3d 2422 8ebd 096c 2f3c
00000350: 5f91 713d 9c61 5c3c 5356 1dbc 48a1 7d3c
00000360: 2509 ccbd 95a0 1cbd ee66 e9bb 7173 983b
00000370: b362 6c3c ef3a 893d 29a5 c2bd da6d aa3d
00000380: 2b3d cebb 3428 1abe a688 a8bd 8955 3b3c
00000390: ea8c 78bd a9f7 723d c8dc 493d 3e4b 133d
000003a0: 83a0 313d 3286 7cbc d3bc bcbd 546b 70bd
000003b0: e476 7f3c 287b 5ebd b4c6 ebbb db24 8abc
000003c0: 1ae8 413d fbc2 db3c 6276 37bd 9d73 ba3c
000003d0: a2eb b2bd ce2b 36bc 9319 f4bd 1a17 0ebc
000003e0: 5203 623d a4ba 32bd 003d 16bd 3b0b 0f3d
000003f0: 5c70 01bd 17c6 0b3d cee3 853d 411c 6a3d

z_encoder.var_encoder.bias f4 [10]
-0.30914143 -0.42318344 -1.5365391 -4.397813 -0.41192618 -3.6032286 -0.74598724 -0.20016791
-2.0764067 -1.0899606
00000000: c947 9ebe 80ab d8be 50ad c4bf e2ba 8cc0
00000010: fde7 d2be 4c9b 66c0 05f9 3ebf d1f8 4cbe
00000020: d9e3 04c0 d483 8bbf

z_encoder.var_encoder.bias f4 [128, 87]
0.09542837 0.25553194 0.018982342 -0.03528252 -0.08044332 -0.04298189 0.048508313 0.11713321
-0.09345637 0.063373886 -0.05481478 0.073618434 -0.023886291 0.01519089 0.15608652 0.041698955
-0.012771196 -0.01250901 0.2310502 -0.045107592 0.06846098 0.12187321 0.053057842 0.12111232
0.12975045 0.23974667 0.37146145 0.2603554 0.06580378 0.03559575 -0.8286814 -0.07478117
0.04070931 -0.074897274 0.088085055 0.016052257 -0.043000303 0.0074510854 -0.0031809574 0.120032564
-0.17453977 0.13669325 0.06397305 -0.23415369 0.067613244 0.030402003 0.088774405 -0.061791312
-0.07175535 -0.060985953 0.09120677 0.013529722 -0.029439228 0.16101591 0.28806388 -0.023752538
-0.048668344 -0.07347123 -0.006503728 0.22215772 0.10768609 -0.04783863 -0.1347355 -0.41618446
0.0015228246 -0.0076566166 0.05192505 -0.0014072583 -0.20230488 -0.06514217 0.24365956 -0.07021659
0.18585318 0.12385508 0.04276669 0.1713485 0.2910406 -0.035670605 0.0007582419 -0.14983962
-0.05510051 0.06073274 -0.032782655 0.026081482 -0.021254098 -0.07200704 0.09877442 -0.07041187
0.14658502 -0.103283286 0.009000163 0.3588689 -0.02446289 -0.029295148 0.1189853 0.040227536
-0.030680994 0.11136644 0.38549498 -0.11470358 0.15630063 -0.073403805 -0.35224977 -0.0527436
0.055627286 -0.24357513 0.10810603 0.027019406 0.015684731 0.17116919 -0.020711454 -0.06514426
0.013504104 0.07400355 0.12679406 0.2761285 -0.07034981 0.18877962 0.108340204 0.15379213
0.08986697 -0.12918645 -0.20143372 0.029037697 0.16407344 0.04713574 -0.03888564 0.2392144
0.45984504 -0.014382584 0.054507673 0.11921251 0.06627921 0.01713359 0.039636917 -0.034975916
0.08785062 0.03992124 0.29480818 0.10334767 0.054844182 0.041622635 0.101073556 0.22291446
-0.05075323 0.07970546 -0.028679999 -0.10989075 0.13025986 0.41609746 0.09902479 0.05630041
-0.067109264 0.032563005 0.26247853 0.020695098 0.015787948 0.13061425 -0.09719815 0.08687206
0.1596814 0.18458566 0.056357257 0.1714546 -0.08032383 0.04251564 -0.03990622 0.10741307
-0.015671568 0.014152518 -0.0011994758 -0.0010897202 -0.09008265 0.08283337 0.094511315 0.23893785
-0.10807003 0.03495768 0.13597077 -0.1203503 0.10264847 0.07017871 0.043857176 0.058296844
-0.057529487 -0.09152121 -0.092582695 -0.07120708 0.17443077 -0.028637167 -0.095129244 0.10627363
0.21552345 0.011114853 0.057831746 0.20786518 0.039394338 0.08536046 0.10019324 0.4952527
0.23844032 0.031494997 -0.104071945 0.14721465 -0.6989759 -0.10785552 0.035635546 -0.1986019
0.17697883 -0.1547699 -0.21015637 0.18215477 -0.07238574 0.00970521 -0.0026958943 -0.037440825
0.17214079 -0.296402 0.014163636 -0.005397828 -0.0063358885 -0.071361996 0.027105393 -0.013996241
0.08428624 -0.023705281 0.038946647 -0.02203294 0.28524488 -0.028103791 -0.01982731 0.03586916
0.00071686704 0.25363812 0.068377346 0.05939703 -0.16414122 0.11133128 0.08746785 -0.057047784
0.060091384 0.014989498 -0.12771596 0.09384185 0.21417445 -0.07844408 0.15098624 0.030999666
0.05826271 0.1913379 0.25359038 0.09009542 0.02967865 -0.09510729 -0.019751158 -0.030757295
00000000: f36f c33d 15d5 823e db80 9b3c 6784 10bd
00000010: 78bf a4bd c70d 30bd a7b0 463d 89e3 ef3d
00000020: 0e66 bfbd 2bca 813d 7685 60bd 43c5 963d
00000030: 2fad c3bc 36e3 783c 25d5 1f3e 86cc 2a3d
00000040: 473e 51bc 97f2 4cbc 6c98 6c3e bdc2 38bd
00000050: 4535 8c3d a998 f93d 2e53 593d bc09 f83d
00000060: 4ddd 043e 2780 753e 3230 be3e 4e4d 853e
00000070: 22c4 863d d9cc 113d 7724 54bf df26 99bd
00000080: cebe 263d be63 99bd f065 b43d 0680 833c
00000090: 1621 30bd 3c28 f43b 9c77 50bb a2d3 f53d
000000a0: 8eba 32be 51f9 0b3e 4d04 833d fcc5 6fbe
000000b0: d078 8a3d 9f0d f93c 5bcf b53d e318 7dbd
000000c0: 78f4 92bd 68cc 79bd 9dca ba3d c4ab 5d3c
000000d0: 892a f1bc 5be1 243e 1c7d 933e af94 c2bc
000000e0: 7558 47bd 1678 96bd 3a1d d5bb 507d 633e
000000f0: 868a dc3d 70f2 43bd 1af8 09be 2116 d5be
00000100: 8499 c73a 5be4 fabb 5caf 543d c173 b8ba
00000110: 0329 4fbe 4269 85bd e481 793e b7cd 8fbd
00000120: 4c50 3e3e bba7 fd3d 202c 2f3d fb75 2f3e
00000130: 4603 953e 571b 12bd c1c4 463a 8f6f 19be
00000140: 13b1 61bd e5c2 783d 1b47 06bd d5a8 d53c
00000150: 131d aebc 6d78 93bd 3e4a ca3d 1934 90bd
00000160: 621a 163e 3086 d3bd 6b75 133c aabd b73e
00000170: 6666 c8bc 61fc efbc 91ae f33d a1c5 243d
00000180: b556 fbbc 1714 e43d 995f c53e b6e9 eabd
00000190: 460d 203e bc54 96bd 155a b4be ac09 58bd
000001a0: 70d9 633d c26b 79be b266 dd3d cd57 dd3c
000001b0: 447d 803c fa46 2f3e 11ab a9bc 5b6a 85bd
000001c0: 5140 5d3c 2c8f 973d 4dd6 013e b760 8d3e
000001d0: 9013 90bd 724f 413e 78e1 dd3d af7b 1d3e
000001e0: 2d0c b83d 7449 04be a444 4ebe 77e0 ed3c
000001f0: de02 283e 6811 413d 8d46 1fbd 9ff4 743e
00000200: cf70 eb3e eea4 6bbc 7043 5f3d b025 f43d
00000210: 65bd 873d be5b 8c3c 525a 223d e842 0fbd
00000220: 07eb b33d 7484 233d 19f1 963e f1a7 d33d
00000230: 4ba4 603d 7f7c 2a3d a7ff ce3d b043 643e
00000240: 9ee2 4fbd 9e3c a33d 51f2 eabc 670e e1bd
00000250: d762 053e ba0a d53e 82cd ca3d 429b 663d
00000260: 9570 89bd c960 053d 9663 863e c488 a93c
00000270: ba55 813c bebf 053e d30f c7bd fbe9 b13d
00000280: 8583 233e 0604 3d3e ded6 663d cb91 2f3e
00000290: d280 a4bd e124 2e3d b474 23bd 62fb db3d
000002a0: a961 80bc f6df 673c bb37 9dba f1d4 8eba
000002b0: 417d b8bd 8ba4 a93d 268f c13d 20ac 743e
000002c0: d253 ddbd c92f 0f3d ec3b 0b3e 387a f6bd
000002d0: 5c39 d23d dbb9 8f3d 95a3 333d acc8 6e3d
000002e0: 0aa4 6bbd 796f bbbd ff9b bdbd 04d5 91bd
000002f0: fb9d 323e 7e98 eabc 1fd3 c2bd fda5 d93d
00000300: 2eb2 5c3e 131b 363c fbe0 6c3d 9cda 543e
00000310: f55b 213d 77d1 ae3d 1d32 cd3d c391 fd3e
00000320: b329 743e e600 013d ac23 d5bd 70bf 163e
00000330: 16f0 32bf 5be3 dcbd 94f6 113d 4c5e 4bbe
00000340: f039 353e 007c 1ebe 3b33 57be c886 3a3e
00000350: fa3e 94bd 9a02 1f3c 9aad 30bb 8d5b 19bd
00000360: ad45 303e 01c2 97be 980e 683c 43e0 b0bb
00000370: 499d cfbb 3d26 92bd 210c de3c 7d50 65bc
00000380: 449e ac3d 9431 c2bc 8586 1f3d 6d7e b4bc
00000390: 9e0b 923e ec39 e6bc e26c a2bc 8aeb 123d
000003a0: 22ec 3b3a dbdc 813e 6c09 8c3d 4d4a 733d
000003b0: a314 28be a701 e43d 5822 b33d f0aa 69bd
000003c0: 6222 763d 8396 753c f9c7 02be 2830 c03d
000003d0: 8c50 5b3e 4aa7 a0bd 239c 1a3e 03f3 fd3c
000003e0: e1a4 6e3d 15ee 433e 99d6 813e f383 b83d
000003f0: a420 f33c 9cc7 c2bd 2ecd a1bc b9f6 fbbc

z_encoder.var_encoder.bias f4 [128]
-0.087611385 0.030666266 -0.05452352 0.019123832 0.0049805758 0.067910224 0.0037566004 0.04860514
0.065016314 -0.021525964 -0.076726034 -0.0053379294 0.04355925 -0.096813336 -0.058402073 0.052594144
-0.07244532 0.09531134 -0.06796854 0.08533483 -0.08161966 0.009024493 -0.0030207662 0.04114775
0.014450522 0.092375256 -0.02273678 0.09498777 -0.027436556 -0.086041 0.078022115 0.02177183
0.027350059 0.032065563 0.064056136 0.053535424 0.03570592 0.015476173 0.007797167 0.057370048
0.096968286 -0.028867066 -0.09498258 0.02511405 0.05525176 -0.07411583 -0.06962211 -0.08396134
-0.005219626 -0.060994815 0.032794893 0.051995095 -0.049144395 -0.06593895 -0.09940817 -0.069251075
0.020717466 -0.004394455 -0.039799623 -0.0041321735 -0.039788075 -0.10533118 -0.08231479 -0.027352907
-0.09561241 0.06052625 -0.051314756 -0.0708103 -0.007403414 -0.08939987 0.07651316 0.06525733
0.022406435 -0.07965364 0.05654277 -0.08459985 0.08484951 -0.023814948 -0.0060167774 -0.094400056
0.03455496 -0.026603993 -0.018773012 -0.03359629 -0.039519895 0.013586384 0.02649931 0.07514581
-0.016089236 0.062237173 -0.10337474 0.024430884 0.004084017 -0.027818482 0.038684644 -0.0032547493
-0.010819867 0.09946303 -0.09450464 -0.06519592 -0.041304924 0.092547186 -0.034118652 0.015917813
-0.02147828 0.069612704 0.06747992 -0.07216697 0.009397747 -0.10197357 -0.045909908 -0.07885665
-0.032167003 -0.00015149503 -0.03705097 -0.041282676 -0.033992328 0.015794843 -0.08712695 0.085997336
-0.0490297 -0.0018871579 -0.07950215 -0.094117284 -0.06588306 -0.08859289 -0.10446908 0.071972005
00000000: 996d b3bd d237 fb3c 0e54 5fbd 95a9 9c3c
00000010: 1934 a33b 8414 8b3d 4c31 763b 2f16 473d
00000020: 4627 853d 3857 b0bc 8a22 9dbd cce9 aebb
00000030: 2f6b 323d 1246 c6bd 0337 6fbd f56c 573d
00000040: 365e 94bd 9832 c33d 1733 8bbd 07c4 ae3d
00000050: 3528 a7bd 78db 133c 0cf8 45bb 8b8a 283d
00000060: e2c1 6c3c 3d2f bd3d 7c42 babc f388 c23d
00000070: a1c2 e0bc 4436 b0bd 0fca 9f3d d65a b23c
00000080: 3b0d e03c 2e57 033d dd2f 833d f647 5b3d
00000090: 5f40 123d c68f 7d3c 617f ff3b dbfc 6a3d
000000a0: 4f97 c63d a07a ecbc 3a86 c2bd fbbb cd3c
000000b0: ab4f 623d 0aca 97bd 0996 8ebd ecf3 abbd
000000c0: 6509 abbb b3d5 79bd f053 063d cff8 543d
000000d0: a24b 49bd 000b 87bd 8396 cbbd 82d3 8dbd
000000e0: adb7 a93c 5cff 8fbb ee04 23bd 2f67 87bb
000000f0: d2f8 22bd e0b7 d7bd a894 a8bd 3413 e0bc
00000100: 70d0 c3bd 60ea 773d 6c2f 52bd fe04 91bd
00000110: 5798 f2bb 4717 b7bd eeb2 9c3d a3a5 853d
00000120: b38d b73c 7321 a3bd 6499 673d b042 adbd
00000130: 94c5 ad3d 9117 c3bc 6328 c5bb d154 c1bd
00000140: 8089 0d3d 9ef0 d9bc dcc9 99bc 439c 09bd
00000150: 9ddf 21bd 6d99 5e3c 1515 d93c 0ce6 993d
00000160: 93cd 83bc 68ec 7e3d 23b6 d3bd 4723 c83c
00000170: 38d3 853b 96e3 e3bc ca73 1e3d a24d 55bb
00000180: d045 31bc 46b3 cb3d a68b c1bd 7085 85bd
00000190: 5a2f 29bd 6189 bd3d 00c0 0bbd 1366 823c
000001a0: 38f3 afbc 1b91 8e3d ea32 8a3d 47cc 93bd
000001b0: 02f9 193c 85d7 d0bd 070c 3cbd 987f a1bd
000001c0: 8cc1 03bd a3da 1eb9 c2c2 17bd 0618 29bd
000001d0: 8a3b 0bbd 3064 813c 9d6f b2bd 5f1f b03d
000001e0: 5ed3 48bd 835a f7ba 06d2 a2bd 90c0 c0bd
000001f0: b3ed 86bd 3070 b5bd e3f3 d5bd 0f66 933d

z_encoder.var_encoder.bias f4 [128]
0.24845788 0.064633474 0.21020593 0.07860654 0.47559947 0.3011593 0.07200559 0.06557156
0.44882047 0.06968394 0.07102581 0.2040675 0.06534034 0.06548125 0.084865324 0.067154124
0.13283995 0.07059884 0.18202952 0.07487814 0.28371176 0.06269274 0.37037885 0.057798114
0.06330662 0.06342325 0.058999505 0.07169829 0.06819532 0.06501043 0.06053846 0.06483748
0.065774925 0.063046046 0.066547856 0.0687741 0.06591169 0.17133741 0.06606779 0.087287106
0.070207804 0.068597235 0.06956805 0.32272735 0.066817164 0.070860945 0.06921092 0.060433503
0.06876022 0.0788065 0.07720032 0.11378911 0.07765981 0.06936217 0.18698211 0.06448619
0.34146118 0.06922639 0.06204305 0.1332282 0.23244807 0.2297805 0.06944252 0.064463034
0.05566926 0.07218241 0.06730554 0.320224 0.06631419 0.06946639 0.16339266 0.06409061
0.06596773 0.07238099 0.06910072 0.0669949 0.058894064 0.07368753 0.06683532 0.06726054
0.19665796 0.15916428 0.4280051 0.07352079 0.064268366 0.2554056 0.07424103 0.16934146
0.068070225 0.24262035 0.17405418 0.07127154 0.069499865 0.16183157 0.069258094 0.36466366
0.06595102 0.07141222 0.07391924 0.26622438 0.06850147 0.063738115 0.06740133 0.1618202
0.14289254 0.083791964 0.077092335 0.067236505 0.36277387 0.07476352 0.1683366 0.2022865
0.071815245 0.0664563 0.06334925 0.06946711 0.07274602 0.06583198 0.2774186 0.07279486
0.07693783 0.064375296 0.0682464 0.07462763 0.06743109 0.05966089 0.27097377 0.06728501
00000000: be6b 7e3e 8e5e 843d 3940 573e 77fc a03d
00000010: c681 f33e 8d31 9a3e ab77 933d 624a 863d
00000020: cccb e53e 74b6 8e3d fb75 913d 12f7 503e
00000030: 28d1 853d 091b 863d dfcd ad3d 1a88 893d
00000040: 3207 083e 2096 903d f265 3a3e b659 993d
00000050: ab42 913e 0d65 803d 4ca2 bd3e b7bd 6c3d
00000060: e7a6 813d 0de4 813d 77a9 713d 8ed6 923d
00000070: fda9 8b3d 3024 853d 2df7 773d 83c9 843d
00000080: 01b5 863d 491e 813d 3e4a 883d 6fd9 8c3d
00000090: b5fc 863d 1373 2f3e 8d4e 873d 95c3 b23d
000000a0: 1cc9 8f3d b57c 8c3d b279 8e3d 853c a53e
000000b0: 70d7 883d 8b1f 913d 74be 8d3d 1f89 773d
000000c0: 29d2 8c3d 4d65 a13d 341b 9e3d 440a e93d
000000d0: 1b0c 9f3d c10d 8e3d 3d78 3f3e 5611 843d
000000e0: 00d4 ae3e 91c6 8d3d da20 7e3d f96c 083e
000000f0: de06 6e3e 944b 6b3e e137 8e3d 3205 843d
00000100: 7305 643d 5fd4 933d 7dd7 893d 66f4 a33e
00000110: bccf 873d 6544 8e3d 6850 273e f041 833d
00000120: 171a 873d 7c3c 943d ae84 8d3d 9f34 893d
00000130: e73a 713d 7de9 963d f5e0 883d e5bf 893d
00000140: b460 493e f6fb 223e 7c23 db3e 1192 963d
00000150: 229f 833d 86c4 823e ae0b 983d d967 2d3e
00000160: 6768 8b3d 7871 783e 423b 323e d0f6 913d
00000170: f255 8e3d 2db7 253e 30d7 8d3d 32b5 ba3e
00000180: 5411 873d 9240 923d f862 973d 904e 883e
00000190: 804a 8c3d 2189 823d b509 8a3d 32b4 253e
000001a0: 6c52 123e 1f9b ab3d 96e2 9d3d 4bb3 893d
000001b0: 7fbd b93e 9e1d 993d 6e60 2c3e 3124 4f3e
000001c0: df13 933d 3e1a 883d 40bd 813d c644 8e3d
000001d0: defb 943d ebd2 863d d009 8e3e 7915 953d
000001e0: 9591 9d3d 32d7 833d c5c4 8b3d 5fd6 983d
000001f0: 5019 8a3d fa5e 743d 13bd 8a3e b9cc 893d
